# Ultralytics YOLO 🚀, AGPL-3.0 license
# RT-DETR-l object detection model with P3-P5 outputs. For details see https://docs.ultralytics.com/models/rtdetr

# Parameters
nc: 2  # number of classes
scales: # model compound scaling constants, i.e. 'model=yolov8n-cls.yaml' will call yolov8-cls.yaml with scale 'n'
  # [depth, width, max_channels]
  l: [1.00, 1.00, 1024]

# From BiliBili 魔鬼面具
backbone:
  # [from, repeats, module, args]
  - [-1, 1, ConvNormLayer, [32, 3, 2, None, False, 'relu']] # 0-P1/2
  - [-1, 1, ConvNormLayer, [32, 3, 1, None, False, 'relu']] # 1
  - [-1, 1, ConvNormLayer, [64, 3, 1, None, False, 'relu']] # 2
  - [-1, 1, nn.MaxPool2d, [3, 2, 1]] # 3-P2/4
  
  # [ch_out, block_type, block_nums, stage_num, act, variant]
  - [-1, 1, Blocks, [64, BasicBlock, 2, 2, 'relu']] # 4
  - [-1, 1, Blocks, [128, BasicBlock, 2, 3, 'relu']] # 5-P3/8
  - [-1, 1, Blocks, [256, BasicBlock, 2, 4, 'relu']] # 6-P4/16
  - [-1, 1, Blocks, [512, BasicBlock, 2, 5, 'relu']] # 7-P5/32

head:
#  - [-1, 1, Conv, [512, 1, 1, None, 1, 1, False]]  # 8 input_proj.2
#  - [-1, 1, AIFI, [1024, 8]] # 9
#  - [-1, 1, Conv, [256, 1, 1]]  # 10, Y5, lateral_convs.0
  - [-1, 1, Conv, [512, 1, 1, None, 1, 1, False]]  # 8 input_proj.2
  - [-1, 1, STattention, [8, 512]] # 9
  - [-1, 1, Conv, [256, 1, 1]]
#  - [[7, -1], 1, Concat, [1]] # 10
#  - [-1, 1, STattention, [8]] # 9
#  - [-1, 3, RepC3, [256, 0.5]] # 11
#  - [-1, 1, RepC3, [256, 0.5]] # 11

#  - [6, 1, Conv, [256, 1, 1, None, 1, 1, False]]  # 8 input_proj.2
#  - [-1, 1, AIFI, [1024, 8]] # 9
#  - [-1, 1, Conv, [256, 1, 1]]  # 10, Y5, lateral_convs.0
  - [6, 1, Conv, [256, 1, 1, None, 1, 1, False]]  # 11 input_proj.1
  - [-1, 1, STattention, [8, 256]] # 12
  - [-1, 1, Conv, [256, 1, 1]]
#  - [-1, 1, STattention, [8]] # 12
#  - [[6, -1], 1, Concat, [1]] # 13
#  - [-1, 3, RepC3, [256, 0.5]]
#  - [-1, 1, RepC3, [256, 0.5]]

#  - [5, 1, Conv, [128, 1, 1, None, 1, 1, False]]  # 8 input_proj.2
#  - [-1, 1, AIFI, [1024, 8]] # 9
#  - [-1, 1, Conv, [256, 1, 1]]  # 10, Y5, lateral_convs.0
  - [5, 1, Conv, [128, 1, 1, None, 1, 1, False]]  # 14 input_proj.0
  - [-1, 1, STattention, [8, 128]] # 15
  - [-1, 1, Conv, [256, 1, 1]]
#  - [-1, 1, STattention, [8]] # 15
#  - [[5, -1], 1, Concat, [1]] # 16
#  - [-1, 3, RepC3, [256, 0.5]]
#  - [-1, 1, RepC3, [256, 0.5]]

  - [[10, 13, 16], 1, RTDETRDecoder, [nc, 256, 300, 4, 8, 3]]  # Detect(P3, P4, P5)
#  - [[10], 1, RTDETRDecoder, [nc, 256, 300, 4, 8, 3]]  # Detect(P3, P4, P5)
#  - [[10, 11, 12], 1, RTDETRDecoder, [nc, 256, 300, 4, 8, 3]]  # Detect(P3, P4, P5)
#  - [[9, 11, 13], 1, RTDETRDecoder, [nc, 256, 300, 4, 8, 3]]  # Detect(P3, P4, P5)
